…
","    tf.keras.layers.Flatten(),\n","    tf.keras.layers.Dense(128, activation='relu'),\n","    tf.keras.layers.Dense(num_classes, activation='softmax')\n","])"]},{"cell_type":"code","execution_count":null,"metadata":{"colab":{"background_save":true},"id":"vNsXZNhQBJdV"},"outputs":[{"name":"stdout","output_type":"stream","text":["Model: \"sequential_7\"\n","_________________________________________________________________\n"," Layer (type)                Output Shape              Param #   \n","=================================================================\n"," conv2d_6 (Conv2D)           (None, 222, 222, 16)      448       \n","                                                                 \n"," max_pooling2d_6 (MaxPooling  (None, 111, 111, 16)     0         \n"," 2D)                                                             \n","                                                                 \n"," conv2d_7 (Conv2D)           (None, 109, 109, 32)      4640      \n","                                                                 \n"," max_pooling2d_7 (MaxPooling  (None, 54, 54, 32)       0         \n"," 2D)                                                             \n","                                                                 \n"," conv2d_8 (Conv2D)           (None, 52, 52, 64)        18496     \n","                                                                 \n"," max_pooling2d_8 (MaxPooling  (None, 26, 26, 64)       0         \n"," 2D)                                                             \n","                                                                 \n"," flatten_2 (Flatten)         (None, 43264)             0         \n","                                                                 \n"," dense_9 (Dense)             (None, 128)               5537920   \n","                                                                 \n"," dense_10 (Dense)            (None, 5)                 645       \n","                                                                 \n","=================================================================\n","Total params: 5,562,149\n","Trainable params: 5,562,149\n","Non-trainable params: 0\n","_________________________________________________________________\n"]}],"source":["# Compile the model\n","model.compile(optimizer='adam', loss='sparse_categori
…
